SpokestackFrameworkExample/detect.tflite (tflite, 70416 bytes, 4 tensors)

detector/MatMul_bias f4 [128]
000000 5f e9 10 bd 5a e7 4d bd 77 b6 5c be 73 0a d7 bd
       -0.03537881 -0.050269462 -0.2155398 -0.1050004
000010 0d be 8e bd 75 4b dc bc 4b 75 0a 3e c5 35 1e 3e
       -0.06969843 -0.02689145 0.13521306 0.15450199
000020 fd 6b 0e be ef 36 14 3e 68 35 1d bd a5 25 18 be
       -0.13908382 0.1447408 -0.03838101 -0.1485811
000030 9c 2e 4f 3d 0d 63 2c be 8f 3b b7 bd 15 f5 7a 3d
       0.05058156 -0.1683466 -0.08946907 0.061268885
000040 c6 2a 56 be 8b 5d 7c bd 6c f7 41 bd bb 57 51 3e
       -0.20914754 -0.061612647 -0.0473551 0.20443623
000050 14 d4 ee bd ac 67 71 3d 47 fc 16 3e 80 44 c7 bd
       -0.116615444 0.05893676 0.14744674 -0.09729862
000060 c0 0c 34 be 31 30 92 3d 3e 76 18 3e f2 42 d0 bd
       -0.17582989 0.07138098 0.14888856 -0.10169019
000070 5e 40 f3 bd c2 4c 35 be f6 71 78 3d 9d 51 47 3c
       -0.118775114 -0.17705062 0.060655557 0.012165454
000080 17 52 21 3e fe bd c6 3d 24 af 04 be bd b5 9e 3d
       0.15753971 0.09704207 -0.12957436 0.077495076
000090 b9 7b 1f be c8 be 7e bc ec cf 3c 3e b5 69 d1 3d
       -0.1557454 -0.0155484155 0.18438691 0.1022524
0000a0 5e a7 dd 3d df 46 00 be de 07 13 3e 57 c6 5e 3d
       0.108229384 -0.12527035 0.1435847 0.05438837
0000b0 8b 41 b1 bd 90 2b f9 3d 93 4f ce 3d 63 a8 06 be
       -0.086550795 0.12166512 0.10073771 -0.13150172
0000c0 6b 05 41 be 24 91 ec 3d 7a 19 c7 3d ef 77 ef bd
       -0.18849723 0.11551121 0.09721656 -0.116927974
0000d0 05 f0 b1 bd c0 bc 34 3d a7 d7 0a 3e bb 0f 3a be
       -0.08688358 0.04412532 0.13558827 -0.18170063
0000e0 da df 1b 3e 0b 3a 4e 3d e8 94 33 3e 24 f3 46 bd
       0.15222111 0.050348323 0.17537272 -0.04857172
0000f0 64 f1 f0 bd 3e 62 c2 3d 64 3e ad 3d 63 4a 39 be
       -0.117647916 0.094913945 0.08459166 -0.18094783
000100 be 9b 1c 3e 6a dd b3 3d e9 9b 08 3d 3e 15 21 3e
       0.15293786 0.08782466 0.033351813 0.1573076
000110 1c 16 bb 3d 63 00 78 3d 8d d3 33 be 1d 3e 96 bc
       0.091350764 0.060547244 -0.17561169 -0.018340165
000120 90 2b 5c bd 0f 3c e8 bd 48 56 2a 3e 81 56 04 be
       -0.053752482 -0.1133958 0.16634476 -0.12923624
000130 f7 81 0e be 27 6b 99 bd 41 92 dc bd 67 7a 54 bd
       -0.13916765 -0.07491141 -0.10770083 -0.051874544
000140 63 c6 14 be fc 1b f0 3d 72 9e 36 be 2c 55 73 bd
       -0.14528804 0.117240876 -0.1783388 -0.059407398
000150 06 19 0a 3e bb 02 4c bd c9 34 a1 3c a9 62 09 3e
       0.13486108 -0.04980729 0.01967849 0.13416542
000160 fa 33 01 be b1 5e 20 be b8 3d 34 3e f3 10 84 bd
       -0.12617484 -0.15661122 0.17601669 -0.06448545
000170 5c 1a a3 3d 9d d3 07 3e b2 e5 09 be 98 fb c5 3d
       0.07964012 0.13264318 -0.13466528 0.09667128
000180 ce 8a f6 bd a7 3b 45 be 0f 81 3e be 41 47 d6 3d
       -0.12038194 -0.19261037 -0.1860392 0.10462809
000190 6a 71 dc bd 5a 59 75 3d d6 f7 db bd b9 f7 12 3e
       -0.107638195 0.059899665 -0.1074063 0.14352311
0001a0 72 8e cc bd 04 66 b6 bc c6 f5 bc bd d0 ad 18 3e
       -0.09988107 -0.022265442 -0.09226565 0.14910054
0001b0 85 56 3e bd 64 74 98 bc 40 d8 18 be bb 3b 3f be
       -0.04646923 -0.018610187 -0.14926243 -0.18675129
0001c0 0d d2 b6 3d d1 e7 b9 bd 42 eb cd 3a 35 be 87 3d
       0.08926783 -0.090774186 0.0015710371 0.06628076
0001d0 a6 aa 4e be c9 99 ba bd 6f cf 2f 3e 52 54 db bd
       -0.20182285 -0.091113634 0.17168973 -0.10709442
0001e0 f9 d3 2f 3e 2e 2c 95 bd 4d 9e e1 3d ca 89 80 bd
       0.17170705 -0.07283817 0.110165216 -0.06276281
0001f0 f6 db 06 be f4 b0 68 3d 63 fc b5 bd 8c d9 fd 3d
       -0.13169846 0.05680938 -0.088860296 0.123950094

detector/detector_kernel/transpose f4 [128, 128]
000000 b3 16 17 bd e7 08 37 3b 2a 76 a0 3c c3 d8 7d bd
       -0.036886882 0.002792889 0.019587595 -0.0619743
000010 b0 bc 80 bd 35 94 61 bd 0e 67 49 3d 46 38 31 3c
       -0.06285989 -0.055072982 0.049170546 0.010816639
000020 de 69 e7 bc d1 6e 0e 3d 95 35 85 bd 21 bc eb bc
       -0.028248724 0.03477365 -0.065043606 -0.02877623
000030 fe e0 81 bd 8f 27 91 bd dd 40 4f bc c4 ad c3 3b
       -0.06341742 -0.07087623 -0.012649742 0.005971642
000040 de ef d0 3b 04 1b 6d bd 20 a9 99 bd c9 2b 04 be
       0.0063762506 -0.057887092 -0.07502961 -0.12907328
000050 ce 1f da 3b 0a 0c e6 3d 5c e2 25 3c 7a 02 94 3c
       0.0066566234 0.11232765 0.010124769 0.018067587
000060 cc 05 5f bc cd a3 58 bd a4 a5 b0 3d 40 cd f6 bb
       -0.013612222 -0.052890588 0.086253434 -0.007531792
000070 ec 40 7a bd 99 c5 2d bb b7 4b a2 bb 08 a3 00 bd
       -0.06109707 -0.0026515482 -0.0049528736 -0.03140548
000080 e8 de 2e 3d af 85 28 bd fb f7 36 3d a6 62 d5 3b
       0.04269305 -0.041143116 0.044670086 0.006512004
000090 7e ef 00 3c d7 28 a6 bd 61 87 18 bd c4 98 53 3c
       0.007869599 -0.08113258 -0.037238482 0.01291484
0000a0 d9 32 81 3d 1c ac a8 bd b4 32 88 3b d0 4e 8c bc
       0.063085265 -0.08235952 0.004156435 -0.017127424
0000b0 27 2c 09 bd d4 1d 88 3c 63 96 8a bd 23 19 90 3c
       -0.033489373 0.016615786 -0.06766965 0.017590111
0000c0 bf 68 3c bb 2a c9 09 bd 4c 9c c1 bc d6 a7 b4 bc
       -0.0028748957 -0.03363911 -0.023634098 -0.022052687
0000d0 7c a6 b0 bc 14 67 bb 3d c5 db ce 3d b5 ee a1 bc
       -0.021563761 0.0915052 0.101005115 -0.019767145
0000e0 33 a2 3e 3c ce 44 1c bd bf 29 76 3d c6 83 af bc
       0.011635351 -0.038151555 0.060098406 -0.02142514
0000f0 5d 6f 00 3d cb 34 e3 3b 20 11 58 3d 64 ad d5 bd
       0.031356204 0.0069337836 0.052750707 -0.10433462
000100 1d cb 44 3d 54 2a ea bc df e3 e0 bd bf 0d ed bd
       0.048045266 -0.028584637 -0.10980963 -0.115748875
000110 e3 3f e4 bd b2 e6 fb 3d 6b f2 a6 3c 9a 09 f1 bd
       -0.11144998 0.12299861 0.020379266 -0.117694095
000120 bc 56 84 3c 81 0b d1 bc e8 9e 09 3d a2 8b ab 3c
       0.01615464 -0.02551818 0.03359881 0.020940606
000130 7f 07 3a 3d 70 1e 87 bd 1e b5 c6 bb 81 0f 48 bd
       0.045417305 -0.06597602 -0.0060640713 -0.04884291
000140 48 50 64 bc a6 6e 18 3d f9 61 8b bb 6c c4 98 3d
       -0.013935156 0.037214898 -0.0042536226 0.074593395
000150 c9 e0 bb 3d f9 93 36 3d f4 40 aa bb 5c 24 fb 3c
       0.09173734 0.04457471 -0.0051957313 0.030656986
000160 e2 e2 34 bd cf 6b e0 bd 90 f3 b5 bb 86 be 23 3d
       -0.044161685 -0.10958063 -0.0055527166 0.03997662
000170 16 65 1e be fd bb ef 3d 4a a8 b1 bc c1 fc 6b bd
       -0.15468249 0.11705778 -0.021686692 -0.05761409
000180 e0 a1 0c be 84 39 82 3c 36 07 01 3d a8 1f 27 bd
       -0.13733625 0.015896566 0.031501018 -0.040801674
000190 a2 d3 f9 3b b9 57 51 3d fd 0e 99 bd fb 16 22 3d
       0.0076241056 0.05110905 -0.07473562 0.039572697
0001a0 49 7b c1 bd ea 10 41 bd 6d 2f 50 3c e3 a0 15 bd
       -0.09447343 -0.04713527 0.01270662 -0.036530387
0001b0 0c 1f 59 bd b2 9c de bc 74 2c 7a 3d f3 66 0b 3c
       -0.053008124 -0.027174328 0.06107755 0.008508432
0001c0 22 5c 6e bd ee 3b 02 3d e4 45 07 3d 11 b3 a3 bd
       -0.058193333 0.031795435 0.033025637 -0.079931386
0001d0 f6 3e c8 3c a6 0a a5 bc 8b 6c db bd ff 08 a4 bc
       0.024444085 -0.02014668 -0.10714062 -0.02002382
0001e0 18 46 45 3c 91 eb 68 be 2f 98 a1 bc e3 9d ce bd
       0.012040637 -0.22746111 -0.019725887 -0.10088708
0001f0 16 ff 95 3c 63 3e 3c 3c 51 ed 96 bc c3 62 94 3d
       0.018310111 0.0114894835 -0.018423708 0.072454
000200 0c a1 62 bd 7f 48 36 bd 48 27 b1 bc 0d 3c a0 bd
       -0.055329368 -0.04450273 -0.021625176 -0.07823954
000210 bd 99 74 3b 58 c2 30 3d 3e cf f4 3b 07 53 ca bc
       0.003732308 0.04315409 0.0074709943 -0.024697794
000220 e3 e6 9f bc 26 d1 a5 3d c3 6d 82 bd 95 82 46 3d
       -0.019519275 0.080965325 -0.06368592 0.048464376
000230 81 9e 40 bd 71 12 29 bd 3b 18 7a 3c 1b 2c 8b 3d
       -0.04702616 -0.041277353 0.015264566 0.06795522
000240 67 f7 92 b9 d7 4b 67 bd 81 98 16 bd d4 f6 dd bd
       -0.0002803162 -0.05646881 -0.036766533 -0.10838094
000250 2a 58 d9 3c 89 3e 43 3d 07 95 47 3c 1c 7a f0 bc
       0.026531298 0.04766706 0.012181527 -0.029355101
000260 8e e6 a5 bc 14 52 24 bc b0 88 3b 3d ae f1 f1 bc
       -0.020251539 -0.010029335 0.045784652 -0.029534187
000270 e6 02 95 bd 0e d0 0a bd 3b a8 73 3d 88 df 5c bd
       -0.072759435 -0.033889823 0.05948661 -0.053924114
000280 e3 9c ea 3b cc 15 1a bd d2 41 bb 3d e5 57 41 3d
       0.0071598156 -0.037618443 0.091434136 0.047202963
000290 92 da 27 bc 72 87 b3 bd c8 34 12 bd 4d c4 fd 3c
       -0.010244982 -0.087660685 -0.035694867 0.030977393
0002a0 d0 ea d3 3d 86 2a bf bd 78 af 6c bc 07 3a d3 bc
       0.10347521 -0.093342826 -0.014446132 -0.025784506
0002b0 6c 42 4a 3c 6a 2f 85 bd 7e 12 3a bd c1 8f 45 bd
       0.012344938 -0.06503184 -0.04542779 -0.048232798
0002c0 7f b1 30 bd 2f 57 d4 bb 74 82 02 3c 74 b3 3e 3d
       -0.043138023 -0.0064801197 0.007965673 0.04655786
0002d0 6a 80 9b bd dd 70 7b 3d 7c 59 91 3d 82 30 23 bc
       -0.075928524 0.06138693 0.07097146 -0.009960296
0002e0 e0 b5 1e bd cc d0 cd bc 24 a0 84 3d f2 79 e8 bc
       -0.03874767 -0.025123976 0.06475857 -0.02837846
0002f0 19 3b 98 3d 11 4a 41 bd 13 ed b6 3d 4a d4 3f be
       0.07433147 -0.047189776 0.08931937 -0.18733326
000300 8c d7 6b 3d 48 78 2f bc 94 5a c5 bd b5 78 a2 bd
       0.05757861 -0.01070983 -0.09636417 -0.07933179
000310 5b eb 65 bd 28 4f 8e 3d a5 ac 63 bd 0b 52 0a be
       -0.056132656 0.069486916 -0.05558457 -0.1350786
000320 cd 3c 1e 3d da df 18 3d 91 67 90 3d 09 0e 3d b9
       0.038632203 0.037322856 0.07051004 -0.00018029673
000330 b6 85 f4 3c 53 22 9d bb cc 31 16 3d 1f 8a 21 bd
       0.029848915 -0.0047953515 0.036668584 -0.039438363
000340 5e cc ba bc 1a 87 6a 3d 0e e7 6b b8 ad e9 7a bc
       -0.022802528 0.05725775 -5.6243553e-05 -0.015314502
000350 ec 70 bb 3d 6e e6 16 bb 2c 74 66 bd 8a 0c cc 3b
       0.091523975 -0.002302553 -0.056263134 0.0062270807
000360 74 7e 8f bd a6 fb 70 bd 0a 80 1f 3c c5 30 a4 bb
       -0.07006541 -0.05883374 0.009735117 -0.0050106966
000370 d2 66 7f be ad 15 ba 3d 59 75 7a bc b0 36 3c bd
       -0.24941567 0.090861656 -0.015286767 -0.04595059
000380 23 0a 0f be d9 cc 8b bb 17 31 d6 3c 7d af 2a 3b
       -0.1396871 -0.004266363 0.026146455 0.002604454
000390 a1 75 3e 3a 79 c7 c7 3c dd 5e bd bd f8 4d cc 3c
       0.0007265453 0.024387108 -0.09246609 0.024939522
0003a0 c9 29 13 be 95 ef 75 ba 99 05 0f bd cb 00 ab bc
       -0.14371409 -0.0009381709 -0.034917448 -0.020874402
0003b0 40 ea 58 bd b3 e5 32 bc e6 e8 32 3d ac 29 3d bd
       -0.052957773 -0.010919022 0.04367914 -0.04618232
0003c0 d9 ac 8b bd 4f 7c d3 3c 57 03 6a 3c a8 eb 96 bd
       -0.068200774 0.02581611 0.014283023 -0.073691666
0003d0 e0 e1 a6 3c 61 60 2f 3b e7 68 16 be 61 01 d0 bd
       0.020371377 0.0026760327 -0.14688455 -0.10156513
0003e0 97 eb 9c 3c 9b 29 1d be af 2f 2e 3d b0 1a 39 be
       0.019155307 -0.15347902 0.042525943 -0.18076587
0003f0 80 9a c4 bc ce 6f 49 3d 18 65 2a 3d e8 c7 b6 3d
       -0.023999453 0.04917889 0.041600317 0.08924848

detector/detector_scorer/transpose f4 [1, 128]
000000 16 69 11 be 97 1b e3 bd b1 99 52 be c0 84 ee bd
       -0.14200243 -0.11089247 -0.20566441 -0.11646414
000010 d8 70 9f bd 45 a0 4d 3d c9 5a 66 3e 76 ec 25 3e
       -0.07785195 0.050201673 0.2249557 0.16203484
000020 5f 98 71 be 59 42 1d 3e de 95 dd bd 86 bf fe bd
       -0.23593281 0.15357341 -0.108196005 -0.12438874
000030 c1 4b a7 3d e3 a5 3f be ed 2c 1b be a4 72 09 3e
       0.08168746 -0.18715625 -0.15153857 0.13422638
000040 a4 34 5f be 35 13 e3 bd c5 0d e1 3d 44 8f 87 3e
       -0.21797425 -0.11087648 0.109889545 0.2647649
000050 40 34 37 be 00 5d d6 3d 7f 25 0a 3e eb c7 02 be
       -0.17891026 0.10466957 0.13490866 -0.12771575
000060 e9 15 6b be 36 0c bb 3d 72 2f 13 3e cb 53 0a be
       -0.22957577 0.091331884 0.14373568 -0.13508527
000070 c5 fe 2b be c6 30 6e be b5 bf e1 3d 71 08 00 be
       -0.16796406 -0.23260793 0.11022893 -0.1250322
000080 62 7b 2b 3e f0 29 d0 3d 0d 63 26 be ef 5e 11 3e
       0.16746286 0.10164249 -0.16248722 0.1419637
000090 d7 b0 33 be 44 f8 a0 bd 4d 02 5a 3e d5 5b e5 3d
       -0.17547928 -0.07859853 0.2128994 0.11199156
0000a0 79 8f 0f 3e b4 46 fc bd 77 d9 69 3e 16 b8 bb bd
       0.14019574 -0.12318173 0.22836863 -0.09165971
0000b0 c0 2e 17 be 6e c9 15 3e 86 b0 05 3e 48 c0 0c be
       -0.14763927 0.1462762 0.1305562 -0.13745224
0000c0 db 16 58 be be 03 f1 3d f3 a0 11 3e 7c f9 dd bd
       -0.21102469 0.11768292 0.14221554 -0.10838601
0000d0 42 37 1d be 46 76 f5 3d 78 a5 34 3e 92 01 1e be
       -0.1535311 0.119854495 0.17641246 -0.15430287
0000e0 ad 08 6a 3e 39 79 a5 3d 93 b6 57 3e 2f f7 9f bd
       0.22854872 0.08079762 0.2106574 -0.078108184
0000f0 9c 74 22 be 79 6d cb 3d 91 5f 33 3e 89 96 3a be
       -0.15864795 0.099329896 0.17516924 -0.18221487
000100 f1 cd 02 3e da 3c 04 3e 75 c8 e9 bd ee 61 57 3e
       0.12773873 0.12913838 -0.11415187 0.21033451
000110 6a 88 24 3e 83 25 0c 3e 6a 14 59 be b5 a4 76 3d
       0.16067663 0.13686185 -0.21199194 0.06021567
000120 ff 4f c7 bd 92 ac 1c be 28 f7 8d 3e 53 84 80 be
       -0.09732055 -0.15300205 0.27727628 -0.25100955
000130 d0 43 17 be 5b 61 0a be 26 1b 2c be b2 88 f4 bd
       -0.14771962 -0.135137 -0.16807231 -0.11940135
000140 9a b6 64 be 35 56 05 3e 78 3d 1d be 59 da d3 bd
       -0.22335282 0.13021167 -0.1535548 -0.10344381
000150 4f 3b 03 3e 2f d5 0d be 6b 77 83 bd 51 e5 24 3e
       0.12815593 -0.13850854 -0.064192615 0.16103102
000160 5e ef 1c be 78 f2 fb bd ea ef 44 3e 8d 58 0b be
       -0.15325686 -0.123021066 0.19232145 -0.13607998
000170 43 33 12 3e 8d 80 2a 3e 78 98 32 be ad f0 0b 3e
       0.14277367 0.166506 -0.17440975 0.1366603
000180 c5 f3 38 be b1 f8 53 be 57 24 33 be ea 80 07 3e
       -0.1806174 -0.20700337 -0.17494331 0.1323277
000190 ae d9 12 be 85 e5 23 3e 1a 31 35 be af 5e 3b 3e
       -0.1434085 0.16005524 -0.17694512 0.18297838
0001a0 80 80 39 be d0 47 7b 3d e5 26 1d be c4 cc 1d 3e
       -0.18115425 0.061347783 -0.15346868 0.15410143
0001b0 40 47 3d bd 61 70 ee 3d 62 64 78 be 1d bd 66 be
       -0.046210527 0.11642528 -0.24257043 -0.22533078
0001c0 e8 8a 19 3e 73 5e 20 be e0 cb f8 bd 15 ce fa 3d
       0.14994395 -0.1566103 -0.12148261 0.12246338
0001d0 4e 47 44 be e5 ce 08 be 29 fc 25 3e 95 9d 5d be
       -0.19167826 -0.13360174 0.16209473 -0.21642144
0001e0 08 a4 2e 3e 1f bc 1d be 28 c9 22 3e a4 bc e1 bd
       0.1705476 -0.15403794 0.15897048 -0.110223085
0001f0 a2 9c 04 be 7f f2 0d 3e 27 a3 23 be 83 49 40 3e
       -0.12950376 0.13862036 -0.15980206 0.18778042

output/dense/kernel/transpose f4 [1, 128]
000000 16 65 17 3d fe e2 05 be c2 76 a1 3e 43 1b 86 be
       0.036961637 -0.13074872 0.31535918 -0.26192674
000010 c0 1e 73 3d dc b8 cf 3d 51 3d 63 3e 6d 30 01 be
       0.059355497 0.10142681 0.22191359 -0.12616129
000020 9a 17 83 bd d6 7f 39 3e 91 fd 8e 3e 95 80 a0 be
       -0.06400986 0.18115172 0.2792783 -0.313481
000030 c6 5d c1 3e eb 0b e5 be ad 02 01 3f be c0 f3 3e
       0.37766856 -0.44735655 0.5039471 0.47607988
000040 97 b8 2a 3d d1 fb 0b 3c 0a 94 86 bd ba 6a 65 be
       0.041679945 0.008543924 -0.06571205 -0.22403994
000050 b9 38 5f 3e 24 3a ac be 1a 99 c3 3e a8 c1 95 3e
       0.21798982 -0.33638108 0.38202745 0.2924931
000060 0b 0d b3 bd 81 bb 7f 3e 2b e8 15 be ef 36 d5 3e
       -0.08742722 0.24973871 -0.14639346 0.41643474
000070 99 0d 11 be 16 e1 da 3c 96 08 0a 3e 2b 3d 97 3e
       -0.14165343 0.026718657 0.13479838 0.29538855
000080 f2 a8 5a 3e 86 4f 7c be cc 6c 8e 3e 57 d8 e3 be
       0.2135351 -0.24639711 0.2781738 -0.44500992
000090 89 84 b0 3c 06 bc 48 3e 7d 1c 56 3e 6a 02 66 3e
       0.021547573 0.19602975 0.20909305 0.22461858
0000a0 24 18 b7 be 2b 1e 34 be 13 94 0b 3e fc 49 14 3e
       -0.35760605 -0.17589633 0.13630705 0.14481348
0000b0 d8 f2 f6 bd 72 3b d6 bd 07 8b c3 be a7 be bc bc
       -0.120580375 -0.10460557 -0.38192007 -0.023040129
0000c0 7f 17 75 be 9b ea ff 3e 2c 07 82 3e 49 52 af be
       -0.23934744 0.49983677 0.25396097 -0.34242466
0000d0 7f 9f b0 3e dc 7e c3 3e 16 51 97 3e a3 29 b7 be
       0.34496686 0.38182724 0.2955405 -0.35773954
0000e0 8b 6b c0 3e 30 ae c2 3d 02 96 f5 bd b3 dd b6 be
       0.3758205 0.0950588 -0.11991502 -0.35716018
0000f0 b6 48 94 3e 16 66 20 be 08 30 cb bd f1 7f 8f 3e
       0.28961724 -0.15663943 -0.099212706 0.280273
000100 24 2e 11 3e a1 b8 8a 3e 7d 38 87 be a2 62 de bd
       0.14177758 0.27093986 -0.26410285 -0.108586565
000110 a9 b2 87 bd 13 1b a7 be ba f4 67 3e bf cb a2 3e
       -0.066258736 -0.32637843 0.2265195 0.3179607
000120 68 fa 96 3e 09 0e 02 3e 87 5c df be e4 d8 e4 3e
       0.2948792 0.12700666 -0.4362528 0.44696724
000130 60 1c 6b be 11 35 9c 3e c0 c9 e6 3e c9 7e a9 3e
       -0.22960043 0.30509236 0.45075798 0.33104542
000140 db 81 86 be 98 55 ca 3d d8 41 e8 3d 80 5d 89 3e
       -0.26270947 0.09879607 0.11340684 0.26829147
000150 65 cc 45 3e 6b f9 ae be a2 3f b4 bd 7c a9 9c be
       0.19316252 -0.34174666 -0.088011995 -0.30598056
000160 52 96 f4 3d 25 ab 0b be 21 e3 28 be 9d b0 a6 be
       0.11942734 -0.13639505 -0.16492893 -0.3255662
000170 a4 66 bc bd 44 5f 7c 3d 86 36 b3 3d c1 1e cf be
       -0.09199265 0.06161429 0.08750634 -0.4045315
000180 aa 1f d1 bd 2c e6 fd 3e c1 57 f0 3c 02 e5 42 3d
       -0.102111176 0.4958967 0.02933872 0.04758168
000190 92 1e 3a 3e 7d a1 80 be 3d ff 83 3e 1b 0e 8e bc
       0.18175724 -0.25123206 0.2578067 -0.01734071
0001a0 85 83 6b be e2 70 f1 3e d4 07 4e be 78 ea ef 3d
       -0.2299939 0.47156435 -0.20120174 0.11714643
0001b0 9b e2 c8 be e1 bd 39 3e 8a 8d bc be ef 79 d3 3c
       -0.39235386 0.1813884 -0.36826736 0.025814978
0001c0 8e a0 06 be 91 a1 88 be 28 f2 b7 3e c1 91 97 3c
       -0.13147184 -0.26685765 0.35926938 0.018502118
0001d0 75 d5 ad 3e 22 a7 dd 3e 9b 59 e9 bd d7 93 b8 be
       0.33951917 0.43291575 -0.11394044 -0.36050293
0001e0 e2 39 c4 3d 6a 35 8a bc 4e ff bc 3e 73 a9 67 bd
       0.09581353 -0.016871173 0.36913532 -0.056558084
0001f0 14 df a5 be e1 69 68 3e 1e 72 8a be 6d 3f 24 3e
       -0.32396758 0.2269664 -0.2704019 0.1603982
