SpokestackFrameworkExample/Encode.lite (tflite, 263592 bytes, 4 tensors)

encoder/gru_cell/candidate/kernel/transpose f4 [128, 168]
000000 67 4a ff bd 5e 06 ad 3b 79 be 42 3d a3 51 e1 bd
       -0.12465363 0.0052803 0.04754493 -0.11001899
000010 9d 26 60 bd 63 44 28 3d 0e 11 d1 3c ec 02 1a be
       -0.054724324 0.041080844 0.025520828 -0.15040177
000020 ea 3e 95 3d 31 5b 09 be 22 89 55 bd b9 8b e8 3d
       0.072873905 -0.13413693 -0.052132733 0.11354775
000030 02 c0 d5 bd cd b8 aa 3d ac bd 52 3d 9d 59 72 3d
       -0.10437013 0.08336029 0.051450416 0.059167493
000040 ad f1 ff bd 53 cf b2 3d 64 3a a5 3d 4a 96 01 3e
       -0.12497268 0.0873095 0.08067778 0.12654987
000050 52 bf b9 3c 7f 0e d5 bd ba 92 de 3d a0 a6 bc bd
       0.022674236 -0.104031555 0.108678296 -0.09211469
000060 0a f3 00 be 1b 9b a5 bd b0 41 0a be 86 b9 93 bc
       -0.12592712 -0.08086225 -0.1350162 -0.0180328
000070 9e f3 a3 3d 68 b5 f9 3d e4 20 f9 bd 36 c4 bd bd
       0.08005451 0.121928036 -0.121644765 -0.0926594
000080 f9 5e 7e bd 06 77 a9 bc 10 ba 20 3b 1b ba 63 bc
       -0.06210229 -0.020686638 0.0024524964 -0.0138993515
000090 62 55 26 be e3 df c1 bc 0f 47 10 be 37 2a d3 bc
       -0.16243508 -0.023666328 -0.14089607 -0.025776966
0000a0 ea 2b 07 3e 45 f8 ac bc e3 dc c7 3d 75 f8 d2 bd
       0.13200346 -0.021114478 0.09758928 -0.10301296
0000b0 74 32 34 bd 2f 77 f4 bd c6 98 f3 bc 5b a1 43 3d
       -0.04399343 -0.11936795 -0.029735934 0.047761302
0000c0 36 f0 8e bd 58 64 89 bd 9c 3c f9 bd 37 3c 15 3e
       -0.0697941 -0.06708592 -0.121697634 0.14573751
0000d0 f6 a8 d1 bd 4b 40 f1 3c ab 9c 86 bd 04 b7 e9 3d
       -0.10237305 0.029449603 -0.06572851 0.114118606
0000e0 d6 2e 9e 3d 78 ce d4 3c 3b 80 cc 3d 8a c0 e8 bd
       0.07723777 0.025977358 0.099853955 -0.11364849
0000f0 9e ab ef 3d 22 9d d1 bd 3c 0a 59 3d 52 93 1d 3c
       0.11702655 -0.10235049 0.052988276 0.009617643
000100 4a 1d 1f bd 20 02 23 be b9 a4 d3 bc 51 fd e8 bd
       -0.03884629 -0.1591878 -0.025835382 -0.11376441
000110 c2 ef b3 3d f0 10 2b be 51 bd 00 be 90 97 32 bc
       0.087859645 -0.1670568 -0.12572218 -0.010900393
000120 73 db cd bb dd 9b 06 be b1 bd ae bb 7e e6 da 3c
       -0.006282264 -0.13145395 -0.0053326716 0.026721235
000130 12 4c 91 bd 99 e9 cb 3d 84 1e bc 3c 95 0d c0 bd
       -0.070945874 0.099566646 0.02296377 -0.093775906
000140 9e 38 b3 bd 16 6c 16 3e 23 4f c5 bd 6a 04 d0 3d
       -0.08751033 0.14689669 -0.09634235 0.10157092
000150 f8 f5 e6 bb 8c be 9e bc 4e fe e5 3d 56 d1 b6 3d
       -0.0070483647 -0.01937797 0.112301454 0.089266464
000160 39 0f 2c 3d 57 4c 03 be 55 de e3 bd ec fb fe bd
       0.042006705 -0.1282209 -0.11126391 -0.12450394
000170 e4 96 f4 bd 24 0e 96 bd ad 18 d6 bd 39 85 ea 3c
       -0.119428426 -0.07326916 -0.10453925 0.028627979
000180 a7 8d b0 bc 48 f8 d0 bc f6 91 b5 bc 7b 14 83 3b
       -0.02155192 -0.025509015 -0.022164326 0.004000244
000190 f2 32 e0 3d 21 3a 68 bd 54 47 3e bd 41 e4 14 be
       0.10947217 -0.05669606 -0.046454743 -0.14540197
0001a0 6a 83 87 bd 99 e5 4d bd a1 f9 59 bd c7 72 29 3e
       -0.06616862 -0.05026779 -0.05321658 0.1654769
0001b0 62 bd c7 bd 6d c3 ca 3b b5 8e 1d 3e 9c 24 e2 bb
       -0.09752919 0.0061878473 0.1538647 -0.006901337
0001c0 29 e8 31 3e fe 98 0e be 0e 61 81 3c 82 fd c8 bd
       0.17373718 -0.1392555 0.01579335 -0.09813978
0001d0 38 9f 1a 3d 82 99 8a 3d 89 6d d8 bc 6d ee 39 3d
       0.0377495 0.067675605 -0.026419418 0.045393396
0001e0 65 f8 dd 3d 01 3e f1 bd 6b c2 9d bd 1d 43 1c be
       0.10838393 -0.117794044 -0.07703098 -0.15259977
0001f0 fb 08 b7 3d 4a 65 8c bc e7 01 d9 bd ab 0f 49 3e
       0.0893726 -0.017138142 -0.10596066 0.19634883
000200 9f 41 b5 bd bc c8 96 3c e9 61 69 bd 56 fd 10 3e
       -0.08850407 0.018406264 -0.05697814 0.1415914
000210 c2 fa b2 3d 8e 72 97 bd ff 51 0e bd 03 bb 77 3d
       0.087392345 -0.073948964 -0.034746166 0.060481083
000220 8d e9 de 3c f0 97 e6 3b b2 ca d7 bd d8 03 dd 3d
       0.027210975 0.0070371553 -0.10536708 0.10791749
000230 6c 98 08 be 4f 17 1c 3d cd 99 17 be 7c e2 a6 bd
       -0.13339394 0.038108166 -0.14804764 -0.08148667
000240 aa b7 39 3d 1c 0b b0 bd d2 25 30 3d 97 93 d0 3d
       0.04534117 -0.08595869 0.04300482 0.101844005
000250 52 08 5d bc ce b2 9f 3d 3b 6f 3b bb 9b fb 15 bd
       -0.013490753 0.07797776 -0.0028600234 -0.036616903
000260 80 25 24 bd 0e 4e 7b bd e6 b0 df bd 0c 67 de bd
       -0.040074825 -0.061353736 -0.109224126 -0.108594984
000270 9c 9e c4 bd 70 53 0a bd 1b d7 c4 bd 5a ee a5 bc
       -0.09600565 -0.03377098 -0.096113406 -0.020255256
000280 ab 4e 52 bd 43 9b dd 3d a7 42 a5 3d 6b 53 de 3d
       -0.051344555 0.108206294 0.080693536 0.108557545
000290 fd 73 e9 3c 1f 3b f2 3d 4e a9 df bc fc cd 16 be
       0.02849769 0.11827683 -0.02730241 -0.14727014
0002a0 e5 08 23 be ff d8 4b bc 3a 70 f5 3d 01 b5 89 3d
       -0.15921362 -0.012441873 0.11984296 0.06723977
0002b0 56 23 01 3e 9c f7 9c 3d 72 ab 15 3e ec bb 29 3e
       0.12611136 0.07664415 0.14616182 0.16575593
0002c0 53 e1 29 bc 85 97 0e 3e a3 d0 81 3d 4a 78 6d bd
       -0.010368663 0.13924988 0.063386224 -0.057976045
0002d0 34 81 04 3e 47 98 b1 3c 97 f6 df bb ad 65 a1 3d
       0.12939912 0.021679057 -0.0068348157 0.07880721
0002e0 85 58 fd bd a6 60 7a bd cf 49 4a 3d 07 ab 08 3d
       -0.123703994 -0.061127327 0.049386796 0.03336623
0002f0 f0 26 02 bd a6 d2 bc 3d a3 2f c6 bd 29 21 06 be
       -0.031775415 0.092198655 -0.09677055 -0.13098587
000300 39 48 81 3d 87 79 e6 bd 0c bf 09 3e 83 a1 d5 3d
       0.063126035 -0.11253648 0.13451785 0.104311965
000310 6d 2d 11 bd 9e 0e e5 3d 5a 60 0d 3e 5e a6 6d 3d
       -0.035443712 0.11184429 0.13806286 0.05801999
000320 58 23 a9 bd 73 39 00 bd a4 e0 f5 3d e9 d8 93 3d
       -0.082586944 -0.031304788 0.120057374 0.07219107
000330 cd ab de 3d 11 78 cb bd 54 83 19 be 3d fb 6c 3d
       0.10872612 -0.0993501 -0.14991504 0.057856787
000340 af cc e3 3d 37 3a c2 bd 94 13 29 3e cd 18 0d 3e
       0.11123025 -0.0948376 0.16511375 0.13778992
000350 b0 f2 e3 bc 65 e8 67 3c cd db 0f 3e 54 a1 e3 3d
       -0.027825683 0.014154528 0.14048691 0.11114755
000360 3c d8 5a b9 66 50 19 3e 1a 3e fd bd 91 95 37 bd
       -0.00020870654 0.14972076 -0.123653606 -0.044820372
000370 8f 43 52 3d 8f d3 05 be ad 3d 5b 3d 8b 16 e9 3d
       0.05133396 -0.13068984 0.053525615 0.11381253
000380 d7 c3 78 b9 5b d1 f4 3d 46 f5 02 be e5 70 6d bd
       -0.00023724079 0.11953994 -0.12788877 -0.057968993
000390 17 ee b1 bd 66 f0 f8 bc 97 ac 08 bb 0f 44 84 3d
       -0.0868799 -0.030388068 -0.0020854825 0.06458294
0003a0 f6 1e fe 3d 9f 3e e8 bc 73 71 b7 bd 93 7c ff 3d
       0.12408249 -0.028350173 -0.089571856 0.124749325
0003b0 59 a6 f0 3d ca cb 1c 3e 1d a9 1d bd 71 73 14 3e
       0.11750478 0.15312114 -0.038491357 0.14497162
0003c0 1a 99 05 bd c1 69 2d bd e4 09 50 bb b4 89 9f 3d
       -0.032616712 -0.042337183 -0.0031744177 0.07789937
0003d0 1c d3 a0 bd be b2 c4 39 7a 0d 8a bd 12 18 14 be
       -0.07852766 0.00037517207 -0.06740852 -0.14462307
0003e0 b7 81 98 bd a7 c6 c9 3d 99 6c 82 3d 8e 35 49 3d
       -0.07446616 0.09852343 0.063683696 0.04912334
0003f0 41 bd 3c bd c1 66 c9 3d 9a 87 91 3c 14 49 e3 3d
       -0.046078924 0.09834052 0.017764855 0.11097923

encoder/gru_cell/gates/kernel/transpose f4 [256, 168]
000000 fe 9e c1 bd 97 20 bf bd ba 3c 4d bd 90 07 29 bd
       -0.094541535 -0.09332388 -0.05010674 -0.041266978
000010 85 c0 b9 3d 8b 0a 5f ba 70 67 6f bd 90 b4 c1 3c
       0.09069923 -0.0008508346 -0.058448255 0.02364567
000020 28 03 e1 bc 31 7a c0 3a 2e ee b9 3d fe ca db 3d
       -0.027467325 0.0014684853 0.09078632 0.10732077
000030 93 41 99 3d 08 54 8a bd ef e2 5b bc 85 e0 f0 bd
       0.074832104 -0.06754309 -0.013420804 -0.11761574
000040 32 73 9a bd 6d 5d 90 3d cf d1 84 3d ec 64 91 3d
       -0.07541503 0.070490696 0.0648533 0.070993274
000050 ed fa 23 bc 92 92 f7 bd 89 98 04 be 24 a7 de bd
       -0.010008556 -0.12088503 -0.12948813 -0.10871723
000060 63 2e bf bd e1 b1 2d bd e4 1c 69 3d 5b f0 d2 3c
       -0.093350194 -0.042405967 0.056912318 0.025749376
000070 55 44 87 3d d3 2d a8 bd 63 63 da bd df 33 91 bc
       0.0660483 -0.08211865 -0.10663488 -0.01772493
000080 fa a5 97 bd 43 a5 86 bd 74 42 ec bc b8 56 6a 3d
       -0.074047044 -0.0657449 -0.028840281 0.057211608
000090 75 e3 39 bd 99 a4 cb bc e9 1d a5 3d d8 85 a4 3d
       -0.045382936 -0.02485876 0.080623455 0.08033341
0000a0 68 b0 d0 3c 85 7f 9f 3b b7 9a 56 bd ac eb 50 bd
       0.025474742 0.0048674964 -0.05239364 -0.051006004
0000b0 2d 1b 9b bd 6b 9f ae 3d e4 28 da bd 48 85 ed bc
       -0.07573543 0.085265 -0.106523305 -0.028994218
0000c0 00 8e be bd 9b 0b 63 3d 36 78 c3 bc e3 f2 6a 3d
       -0.09304428 0.05543099 -0.023861032 0.05736054
0000d0 37 90 ac 3d 71 bf 7b 3c e0 2a 2c bc 0a f4 73 bd
       0.08425944 0.015365467 -0.010508269 -0.059558906
0000e0 ec 15 4f 3d c7 a0 1e 3e 4a 17 3e bd e9 38 ba 3c
       0.050558016 0.15491019 -0.04640893 0.022732215
0000f0 94 6e a5 3d de 7a f1 3d ec db d0 bd b8 7f 90 bd
       0.08077732 0.11791013 -0.10198197 -0.070556104
000100 9a af b2 bd c9 57 03 bd 14 0f ea bc 78 90 db 3d
       -0.087248996 -0.03206614 -0.028571643 0.107209146
000110 64 ac 31 bd 49 68 ff bd 54 e0 0a be 19 39 d9 bd
       -0.043377295 -0.12471063 -0.13562137 -0.10606594
000120 9e 3e 05 bd ac 4e 77 bd f2 fb 57 bd e7 1c 2e bd
       -0.03253042 -0.06037776 -0.05273051 -0.042508032
000130 37 e8 bf bd a3 3f 37 bd 1f 5b 32 3d 36 3a a9 3d
       -0.09370463 -0.044738423 0.04354393 0.08263056
000140 1a 2f fa 3b 61 b4 2b bd f4 56 3f 3c c1 0a 06 be
       0.0076350095 -0.04192007 0.011678446 -0.1309004
000150 7c bc 8a bd 7c 3c 81 3d 0a e4 fa 3d 8e 33 34 bc
       -0.06774232 0.063103646 0.12250526 -0.01099862
000160 63 db 1c 3c 73 7b bf 3c 58 0b 53 bd 6d 5b de 3c
       0.00957379 0.023374295 -0.05152449 0.027143205
000170 cb 42 93 bd 48 80 2b bd c6 d6 8e 3d 16 dd bd 3d
       -0.07190474 -0.041870385 0.069745585 0.092706844
000180 9b ca f8 bd db 6e ca 3d a9 0e f3 3d e4 70 cd 3c
       -0.12148019 0.09884425 0.118680306 0.025078245
000190 f7 21 01 3c 69 ac 21 3b 1f 21 c5 bc d8 21 a7 bd
       0.007881633 0.0024669415 -0.024063645 -0.08160752
0001a0 38 fa 50 3a 45 87 d9 bd 10 14 25 3e f0 3e df bc
       0.0007971856 -0.10621504 0.16120934 -0.02725169
0001b0 7a 3f 5e 3d 73 7b 67 3b d6 98 90 3d 62 41 b1 bd
       0.054259755 0.0035321384 0.07060401 -0.08655049
0001c0 e6 c7 d7 bd f5 48 95 bd 3a 2e 6a bd 59 58 95 3d
       -0.105361745 -0.07289306 -0.05717299 0.072922416
0001d0 0f fa be 3d 40 66 46 3c 1d ec 4d bd 65 49 c5 3c
       0.09325039 0.012109339 -0.050274003 0.024082849
0001e0 eb 12 ae 3d 68 1d 3b bd 60 cf 99 3d de b2 a1 3d
       0.08499702 -0.04568234 0.07510257 0.07895444
0001f0 1e 52 d2 3d d6 4e b7 3d 5b e4 ec bd 33 70 a3 bd
       0.10269569 0.08950584 -0.11566993 -0.07980385
000200 fb be db 3d 13 4d f6 3d 78 a0 8d bd 97 8d af 3d
       0.10729786 0.120264195 -0.069153726 0.08571928
000210 18 cd 91 bc 2a c2 32 b8 a6 c7 a4 bd 24 60 ac 3d
       -0.017797992 -4.2619336e-05 -0.080458924 0.08416775
000220 9b 24 c1 bd 36 68 50 bd 42 26 01 3d a3 2b ee 3d
       -0.0943081 -0.050880633 0.031530626 0.11629417
000230 cf a1 9a bd 40 c4 99 3d 1d 9e 7d 3c 2d 02 07 be
       -0.07550394 0.07508135 0.015479592 -0.13184424
000240 1a a3 8c 3d 97 22 12 bd 66 d3 ed 3d ec 86 00 be
       0.06867047 -0.03567752 0.11612587 -0.12551469
000250 4c aa 84 bd 4e f6 45 bd ff 21 29 3e 59 17 90 3d
       -0.06477794 -0.048330598 0.16516875 0.07035703
000260 87 4c 88 bd 7c bd 22 3a e5 e8 1c 3c 01 41 20 3d
       -0.066552214 0.0006208045 0.009577011 0.039124493
000270 1b 37 70 3d 99 28 9d 3d bd 4f c3 3d 18 2f f4 3c
       0.058646303 0.07673759 0.09536693 0.029807612
000280 ed 5e 00 3d d7 8a e7 bc 02 36 9a bd 0a fc d8 3d
       0.03134053 -0.028264446 -0.075298324 0.10594948
000290 a5 3f 92 3d b8 0f a4 bc 7a d3 4f ba 56 1a af 3d
       0.071410455 -0.020027027 -0.0007927936 0.08549945
0002a0 8d 37 1c 3c fc 80 ef 3d 02 18 1b 3e 5c ca 28 bc
       0.009534729 0.11694524 0.15145877 -0.0103021525
0002b0 85 7c 39 3e 94 f8 b1 3a cd 59 81 3d 6b 8e 8d 3c
       0.18113907 0.001357811 0.06315956 0.017279824
0002c0 5b f2 bb 3d 0c 11 98 bd 6a c2 2c bd 61 4b 77 3d
       0.09177085 -0.074251264 -0.042177595 0.06037462
0002d0 5f b9 2b 3e 13 9f 7c 3d dd 31 9b bd 07 9e 77 3d
       0.16769932 0.061675142 -0.0757787 0.06045344
0002e0 fd e2 b2 bc 6e ae fb 3d 75 ba 60 3d 07 4b 51 bd
       -0.021836752 0.12289129 0.05486532 -0.051096942
0002f0 df 9a d8 3d ee 68 00 3d ea e2 1b 3e 7c 1b 63 3d
       0.10576414 0.03135007 0.1522328 0.055446133
000300 56 bf da 3a 74 56 aa 3a 81 69 14 3e 41 b0 14 3e
       0.0016689103 0.0012995736 0.14493372 0.1452036
000310 98 51 2c 3d 9c 84 41 bd c8 2e 40 3d 82 39 84 bc
       0.04207 -0.047245607 0.046919614 -0.016140703
000320 04 e6 d5 3d a8 9c dc 3d 27 0c 50 bd 09 91 85 bd
       0.104442626 0.10772067 -0.05079284 -0.06521804
000330 fc 8e 3d 3d f0 71 d0 3c a1 3b da 3d a2 a5 a3 3d
       0.04627894 0.025444955 0.106559046 0.07990576
000340 4e 07 f2 3c 27 f5 c4 bd 94 5d c7 3c 0f 67 74 3d
       0.029544499 -0.096170716 0.024336614 0.059668597
000350 58 11 07 be 89 ce cc bc 81 4c e7 bd d8 5e bd bd
       -0.1319021 -0.025000827 -0.11293889 -0.09246606
000360 dc 51 97 3d dc a1 6d 3d 87 05 ae bd c8 48 d6 3d
       0.0738866 0.05801569 -0.08497148 0.10463101
000370 58 6c 62 bd 27 09 2d bc cb 4a da bd 67 b8 89 bd
       -0.055279106 -0.010561264 -0.10658797 -0.06724625
000380 84 75 dc 3d 66 1c 60 3d 0e 31 07 bd 99 ee b3 3d
       0.10764602 0.054714583 -0.033005767 0.08785743
000390 ae 34 86 3d af 8e a2 bc 78 18 ea bd 56 24 03 be
       0.065530166 -0.019843427 -0.11430448 -0.1280683
0003a0 8c f5 c2 bc c5 77 af bd d5 c9 00 3e 86 fc 34 3d
       -0.023798726 -0.08567766 0.12576993 0.044186138
0003b0 b7 e7 c3 3d 57 b0 93 bd 2a d4 13 3e 5e 62 a7 3d
       0.095656805 -0.072113685 0.14436403 0.08173059
0003c0 45 41 e2 bd 04 e6 8a bc 74 a0 44 bd 31 a8 02 bb
       -0.110476054 -0.016955383 -0.048004583 -0.0019936676
0003d0 3a 86 8e 3c 3b 0c e2 bc c0 3a f9 3d ca 04 fe 3c
       0.017397989 -0.027593723 0.12169409 0.031008143
0003e0 98 28 8f bd fa a5 90 3d cc 10 ae bc 2b 89 8c bd
       -0.069901645 0.070629075 -0.021248244 -0.068621
0003f0 52 d1 04 3e bf 03 cc bd d0 60 b8 3b d2 72 17 be
       0.12970474 -0.09961652 0.0056267753 -0.14789894

encoder/rnn/gru_cell/MatMul_1_bias f4 [128]
000000 82 4b 9f bb 68 8f fd bc e6 f0 a5 bc f6 9b 93 bc
       -0.004861296 -0.03095217 -0.02025647 -0.018018704
000010 a9 ab 98 3c cb 4a e9 3c 79 cf e7 bc 10 7d a5 3c
       0.018636541 0.028478047 -0.028297173 0.020201236
000020 4b ba 2f 3d c2 78 de ba 35 65 dd 3c a9 89 de 3a
       0.042902272 -0.0016973244 0.027025798 0.0016978282
000030 a7 29 bc bd f3 d5 00 3d 9e 80 84 bb db fe a1 3b
       -0.09187632 0.031454038 -0.0040436527 0.004943711
000040 bb aa 34 3d 14 93 79 3c c8 7d 03 3d c4 d8 e3 bc
       0.044108134 0.01523282 0.032102376 -0.027813323
000050 2e c4 46 bb 1f 12 46 ba 0e 60 a3 3c c7 d6 3d 3d
       -0.0030329335 -0.0007555801 0.019943263 0.046347406
000060 c7 67 f7 bc d6 69 42 3c e9 1e fb b9 3b 17 14 bc
       -0.030200852 0.011866054 -0.0004789748 -0.009038742
000070 b6 05 f1 bc 76 4f 71 3c 7d 89 f5 bc 4d 38 de bc
       -0.029421668 0.014728418 -0.029972786 -0.027126456
000080 1f a8 88 bc 61 d4 6b bc 8b 08 cf 3b 22 ab 1d bc
       -0.016681729 -0.014393897 0.006318157 -0.009623321
000090 28 c3 2e bd 48 8f 7e bb 09 a7 ae bc 7d 9a f2 3c
       -0.042666584 -0.0038842726 -0.021319883 0.029614681
0000a0 dc 43 6e bb f9 5e ed 3b e9 e4 27 3d b9 10 a5 3c
       -0.0036356365 0.0072439876 0.04098979 0.020149576
0000b0 26 5d c3 3c c0 0c b0 bc c5 6e a3 bc e2 ce 5a bc
       0.023848128 -0.021490455 -0.01995028 -0.013354989
0000c0 20 e8 c7 bc 92 60 0b 3c 3f d1 37 3c f4 15 1d 3b
       -0.024402678 0.008506911 0.011219322 0.0023969384
0000d0 46 fa 3b bd d7 6c 1b bd 21 b7 06 3c 75 05 30 bc
       -0.045892976 -0.037945595 0.008222372 -0.010743489
0000e0 87 29 fa bc 8e 06 a3 3d cc a4 4e 37 17 10 be 3b
       -0.03053738 0.079602346 1.2316927e-05 0.005800258
0000f0 d4 6d 1b 3c 13 07 0a bd 70 e8 0b 3c d9 a0 88 bc
       0.009486634 -0.033698153 0.008539304 -0.01667826
000100 3a 5f 18 3c 64 29 59 3c f9 ea f1 3c 92 38 cf bb
       0.0093000475 0.013254497 0.029530989 -0.0063238824
000110 ea 55 5f 3c 22 18 a8 3c 79 28 d5 3c fd 7c 5a ba
       0.013631323 0.02051932 0.026020275 -0.0008334665
000120 f3 80 ec 3c 03 b9 01 3d 7f 13 ca bb 14 12 97 3c
       0.028870082 0.03167058 -0.006166875 0.018441238
000130 ab 04 04 bd 10 d2 fd 3c 3f 8f 81 3c fe db 46 3a
       -0.032231014 0.030983955 0.015815375 0.0007585882
000140 6b 65 dd bc 66 11 02 3d 1b 0e 42 3d 0b 7f 90 3c
       -0.027025899 0.031754874 0.047376733 0.017638704
000150 08 5c af 3c 8c bf eb 3c 8a e8 d5 3c 04 05 58 bc
       0.021406189 0.02877786 0.02611186 -0.01318479
000160 bb 3a 9f 3c 21 95 99 bc 7b db 07 bd 4b c4 ad bc
       0.019437185 -0.018747868 -0.033168297 -0.021211764
000170 a9 38 76 3b 17 85 21 bc 03 58 cb bc 24 a6 6c 3c
       0.0037570393 -0.009858391 -0.02482224 0.014443908
000180 10 63 df ba 33 41 59 3c df 9e 47 3d a7 d6 03 bd
       -0.0017043073 0.013260174 0.048735496 -0.03218713
000190 68 1e 9e 3c d3 f3 d4 bc 09 c1 df 3b 5d bb b4 bd
       0.019301608 -0.02599517 0.0068284315 -0.08824799
0001a0 82 a2 ae 3c 7f 4b 8a 3c 2e 8a 3f bc b8 2c 2d bb
       0.021317724 0.016881702 -0.011690659 -0.002642436
0001b0 b3 d4 c3 bc 92 4e 9b 3c 9b e1 62 3c 6b 90 18 bd
       -0.023905134 0.018958364 0.013847734 -0.037247103
0001c0 f7 77 78 bc b0 a4 91 bb 36 fe a0 3c fc f6 58 3c
       -0.015165321 -0.004444681 0.019652467 0.013242479
0001d0 1d 91 91 bc 02 e6 53 3c 82 d9 ec 3b 48 74 56 bc
       -0.01776939 0.012933256 0.0072280774 -0.013089247
0001e0 98 07 92 3c c2 e1 de bb 35 bf ba 3c d6 7c cc 3c
       0.017825887 -0.006801815 0.022796253 0.02496187
0001f0 bf 03 9e bc 76 29 0a 3c 4c 8d a9 bc df 0d b2 bd
       -0.019288896 0.008432737 -0.020697258 -0.08694052

encoder/rnn/gru_cell/MatMul_bias f4 [256]
000000 9f b1 09 3c 01 5b 56 bc 24 cf 51 3c bb c9 82 bb
       0.008404165 -0.01308322 0.012805734 -0.0039913333
000010 2a 4a df 3d 4c 3d 8e 3c fd f2 8f bb fa 5e e1 3c
       0.109028175 0.017363213 -0.00439298 0.027511109
000020 4c c0 21 3d 65 6c 39 3d 6a 14 28 bc 78 c1 2b 3d
       0.03949003 0.04526939 -0.010258773 0.041932553
000030 07 98 30 3d 20 2d 27 3c 39 a1 bc 37 d4 28 8b 3b
       0.043113735 0.01020363 2.2486422e-05 0.0042468105
000040 67 9d 09 3b 23 7b 82 3b ce 62 a4 3d db 20 0c 3c
       0.002099836 0.003981964 0.08026658 0.008552755
000050 06 9a b2 3c 54 e2 4d 3c 7d bd 8b 39 18 97 3c bc
       0.02180196 0.012566168 0.00026653326 -0.011510633
000060 91 6e 40 3c f4 d2 b9 3c 61 97 5f bb 7a 50 56 3d
       0.011745111 0.022683598 -0.0034117328 0.052322842
000070 34 2a 19 bc 0a 03 cc 3c 13 19 bb 3d ef 19 01 3c
       -0.009348441 0.024903793 0.09135642 0.007879718
000080 d9 2d 8e 3c e9 c2 49 3d ff 2f 34 3c fc d3 6b bc
       0.017355846 0.049258146 0.010997771 -0.014393803
000090 32 04 c4 3c bc 6d 12 3d 05 43 41 3c 1f c4 e2 bb
       0.023927782 0.035749182 0.011795764 -0.006920352
0000a0 99 ad 16 3c c2 93 97 3c 36 9d bc 3b b6 71 3a bc
       0.009196662 0.018503074 0.0057560457 -0.01137965
0000b0 c4 eb 7f 3c 29 23 94 3c 20 60 e2 3b 19 0e d6 3c
       0.015620176 0.018083172 0.0069084316 0.02612977
0000c0 39 99 08 3c 6e 81 3c 3d d1 37 19 3d 0e a4 9d 3c
       0.008337312 0.04602187 0.037406746 0.019243266
0000d0 94 ff 52 3c c0 a0 02 3a 02 41 16 bc 26 70 0a b9
       0.012878317 0.000498306 -0.0091707725 -0.00013202484
0000e0 37 1a 9b 3c 3d 06 9d 3c 6c 5c f1 bb dc d5 4b 3c
       0.018933399 0.019168014 -0.007365754 0.012441125
0000f0 cc ae 03 3d dd 2f ca bb 5e ef 03 3c b1 e0 7b 3c
       0.03214912 -0.0061702565 0.008052675 0.015373395
000100 67 52 75 bb 59 cb 87 3c 07 38 d2 bc ea 37 ae 38
       -0.0037433149 0.016576456 -0.025661482 8.307381e-05
000110 8c c7 43 bc ba 7b 39 3c 8c 1d 03 3d 33 6f 1f 3d
       -0.011949431 0.011321003 0.0320106 0.038924407
000120 2b 9a b4 3d c5 08 77 3c af 16 8d bb 98 d0 43 3c
       0.08818468 0.015077774 -0.0043056826 0.011951588
000130 66 67 54 bb c7 c3 cc 3c 38 73 5e 3b f4 6e 6f 3c
       -0.0032410263 0.024995698 0.0033943187 0.014613856
000140 ca 5b 7f bc 24 4f 2e bb d8 22 46 3d 8b 1f 6e ba
       -0.015585849 -0.0026597464 0.048373073 -0.000908368
000150 8f 25 b9 3c ad ee 55 3d 3c b8 5d bc 07 7f 11 3d
       0.022600917 0.052229572 -0.013532694 0.035521533
000160 6a 85 c2 bb 3f a0 48 3d 5a 21 81 39 12 13 84 3c
       -0.0059363144 0.048980948 0.00024629646 0.016122375
000170 51 41 03 bc bb 55 a7 3c 4e 2f 13 bc 4f 8e 9e 3b
       -0.008011178 0.020426622 -0.008983446 0.004838742
000180 63 13 4a 3d 1c 1c 5a 3c 5f c4 35 bc 98 b3 9d 3c
       0.049334895 0.013312366 -0.011094182 0.019250676
000190 ad 88 0c bc 3e 96 b2 ba 8f a1 9d 3d b2 b1 2a 3d
       -0.008577508 -0.0013625098 0.076968305 0.04167337
0001a0 d1 fc e2 3c e7 d6 b6 3b b8 2b 93 ba 23 bc 28 3d
       0.027708443 0.0055798176 -0.0011228239 0.041195046
0001b0 d5 cf 1f bd c2 06 80 bc e9 dc 56 3c 5b 58 6b 3a
       -0.039016563 -0.015628222 0.0131141925 0.00089777046
0001c0 25 b8 5b ba e0 2b a7 ba 86 e1 67 3d 1f 60 fe bb
       -0.00083816267 -0.0012754165 0.05661156 -0.0077629234
0001d0 01 cd 13 3d e2 db 05 3d 72 2b 7b 3c 02 ab 6d 3c
       0.03608418 0.0326804 0.015330182 0.0145061035
0001e0 0a ec 05 bc c3 7d 4f bb 8c b5 3b 3c 05 05 1e 3d
       -0.008173952 -0.0031660653 0.011456858 0.038579006
0001f0 40 06 0a bc 3f 9b 83 3c cb b5 de 3c e3 ff f8 3c
       -0.008424342 0.016065238 0.027186295 0.030395454
000200 bc 67 2d 3d 77 cf cf 3a 67 f0 1e bd e6 12 0d 3d
       0.042335257 0.0015854676 -0.038803484 0.03444185
000210 2c 77 b4 3d 5b a8 b7 3c 62 5e e4 3d c2 a1 06 bd
       0.08811793 0.022419145 0.111508146 -0.032869108
000220 0a b2 ba 3d 09 14 56 3d 62 a0 82 bc 58 43 a2 3d
       0.091159895 0.0522652 -0.015945617 0.07923001
000230 85 72 71 bd 26 1a b8 bd 4d 31 33 3d 01 1d f0 3c
       -0.058947105 -0.089893624 0.04374819 0.029310705
000240 b4 22 50 bb 0a dc 2a 3c e1 98 c4 bb 9a 95 94 3d
       -0.0031758966 0.010428438 -0.00599967 0.07255097
000250 01 95 05 be 7a fc f2 bb 67 15 e2 3d 93 ec 33 3d
       -0.13045122 -0.0074153515 0.110392384 0.043926787
000260 33 dc d3 ba 86 6a f2 3b fa 05 b6 bc 8c 69 48 3d
       -0.0016163647 0.0073979525 -0.022219647 0.048928782
000270 ab ed 69 3b 43 ac 08 3d 5d de c9 bb 37 28 1e 3c
       0.003569464 0.033367407 -0.006160541 0.009653143
000280 72 a5 40 3d 55 94 81 3d b1 e8 00 bd 4f c8 17 bd
       0.04703278 0.0632712 -0.03147191 -0.037056264
000290 47 2f 8f 3d 6f e2 90 3c 5b 09 db bc b7 f4 ae 3d
       0.06991439 0.017686097 -0.02673786 0.085427694
0002a0 c3 1d 0b 3e f6 47 18 3c 1c f7 9e 3c fa 8b 78 3d
       0.13585572 0.009294501 0.01940494 0.060680367
0002b0 95 bb af 3d e0 22 a7 3d ba d0 37 3d 00 30 0e 3e
       0.085807 0.08160949 0.04487679 0.13885498
0002c0 fc d6 12 3d 87 07 40 3d 94 11 7d 3d aa 53 85 3d
       0.035849556 0.04688218 0.061784342 0.06510098
0002d0 67 1f 99 bd e3 88 ba bc de bd 83 3c a5 57 2b 3d
       -0.07476693 -0.02277035 0.016081747 0.04183163
0002e0 91 3c 88 3c fd c1 00 3d 24 fe 62 3d e5 4f 8e bd
       0.016630443 0.031435 0.05541815 -0.069488324
0002f0 54 47 f7 3c 02 55 a6 bc 38 79 e5 bc 3c 3a 5b 3d
       0.03018538 -0.020304207 -0.028011903 0.053522334
000300 0b 3c da 3c 71 e5 58 bd d6 22 6b 3d f7 1f 06 3d
       0.026639959 -0.052953187 0.05740627 0.032745328
000310 d0 6c 6f 3d 7a 07 05 3e 4e 60 6d bd 6a 05 65 3c
       0.05845338 0.12991133 -0.05795317 0.013978342
000320 67 43 9c bc f4 14 90 3c 2f a9 ee 3d bc 62 fd 3c
       -0.019075109 0.017588116 0.11653363 0.03093087
000330 13 6a bf 3d 71 74 c6 3d ff df c7 b9 01 a1 d5 3b
       0.09346404 0.09690178 -0.00038123128 0.0065194373
000340 5f 34 76 3d b4 34 c5 3d b5 79 af ba 69 68 15 3d
       0.06010854 0.09629193 -0.0013387712 0.036476526
000350 1a 71 8d bd 7e c4 4c 3d 48 5b c0 bc 08 94 a0 3d
       -0.06906338 0.049992077 -0.023481026 0.07840735
000360 9a 7b 06 be 2e 84 0f 3d ae 03 1a 3d 02 af 70 3d
       -0.13133088 0.035038166 0.037601165 0.05876065
000370 05 ca b9 3d fb 9e 47 3d bd 3d 49 3d 73 37 b4 3c
       0.09071735 0.0487356 0.049131144 0.021999096
000380 f9 2b b3 3d 16 a1 61 3d 79 b1 ac 3d e6 3a 07 3d
       0.087486215 0.055085264 0.08432288 0.033015154
000390 ef 41 8d b9 5d 61 a1 3d 96 f2 5b 3d c1 56 cf bd
       -0.0002694274 0.07879899 0.053698145 -0.10123969
0003a0 82 06 dd 3d f4 78 ff 3c 3c 05 56 3d 55 d6 76 3d
       0.10792257 0.031185605 0.052251086 0.060262997
0003b0 5c 09 19 3c ec e9 59 3d 03 db 4b 3c d8 ac 61 3d
       0.00934061 0.0532016 0.012442353 0.055096477
0003c0 be 4c 1b 3c b9 e5 91 bb 4f 4b 37 3d bf 7a da 3d
       0.009478746 -0.004452434 0.044749554 0.10667943
0003d0 63 7c 17 be aa bc 74 3d 03 3a f9 3d be 29 12 bd
       -0.14793544 0.059750237 0.12169268 -0.03568434
0003e0 5c b2 93 3d 8a 67 f5 3d 0b 3c 6b 3d d8 4e ad 3c
       0.07211754 0.11982639 0.05743031 0.02115576
0003f0 58 cc 16 3e ae 1f aa 3d bd 6e 24 bd 5d d0 ab bd
       0.14726388 0.08306824 -0.04014467 -0.083893515
